…
2025-10-16 16:24:30 - [INFO] - Kiến trúc chi tiết của mô hình:
================================================================================================================================================================
Layer (type:depth-idx)                                       Input Shape               Output Shape              Param #                   Mult-Adds
================================================================================================================================================================
ErnieMForSequenceClassification                              --                        [2, 3]                    --                        --
├─ErnieMModel: 1-1                                           [2, 512]                  [2, 1024]                 --                        --
│    └─ErnieMEmbeddings: 2-1                                 --                        [2, 512, 1024]            --                        --
│    │    └─Embedding: 3-1                                   [2, 512]                  [2, 512, 1024]            256,002,048               512,004,096
│    │    └─Embedding: 3-2                                   [2, 512]                  [2, 512, 1024]            526,336                   1,052,672
│    │    └─LayerNorm: 3-3                                   [2, 512, 1024]            [2, 512, 1024]            2,048                     4,096
│    │    └─Dropout: 3-4                                     [2, 512, 1024]            [2, 512, 1024]            --                        --
│    └─ErnieMEncoder: 2-2                                    [2, 512, 1024]            [2, 512, 1024]            --                        --
│    │    └─ModuleList: 3-5                                  --                        --                        302,309,376               --
│    └─ErnieMPooler: 2-3                                     [2, 512, 1024]            [2, 1024]                 --                        --
│    │    └─Linear: 3-6                                      [2, 1024]                 [2, 1024]                 1,049,600                 2,099,200
│    │    └─Tanh: 3-7                                        [2, 1024]                 [2, 1024]                 --                        --
├─Dropout: 1-2                                               [2, 1024]                 [2, 1024]                 --                        --
├─Linear: 1-3                                                [2, 1024]                 [2, 3]                    3,075                     6,150
================================================================================================================================================================
Total params: 559,892,483
Trainable params: 559,892,483
Non-trainable params: 0
Total mult-adds (Units.GIGABYTES): 1.12
================================================================================================================================================================
…
